<?xml version="1.0" ?>
<net batch="1" name="VGG_VOC0712Plus_SSD_300x300_ft_deploy" version="5">
	<layers>
		<layer id="0" name="data" precision="FP32" type="Input">
			<output>
				<port id="0">
					<dim>1</dim>
					<dim>3</dim>
					<dim>300</dim>
					<dim>300</dim>
				</port>
			</output>
		</layer>
		<layer id="1" name="conv1_1" precision="FP32" type="Convolution">
			<data dilations="1,1" group="1" kernel="3,3" output="64" pads_begin="1,1" pads_end="1,1" strides="1,1"/>
			<input>
				<port id="0">
					<dim>1</dim>
					<dim>3</dim>
					<dim>300</dim>
					<dim>300</dim>
				</port>
			</input>
			<output>
				<port id="3">
					<dim>1</dim>
					<dim>64</dim>
					<dim>300</dim>
					<dim>300</dim>
				</port>
			</output>
			<blobs>
				<weights offset="0" size="6912"/>
				<biases offset="6912" size="256"/>
			</blobs>
		</layer>
		<layer id="2" name="relu1_1" precision="FP32" type="ReLU">
			<data negative_slope="0.0"/>
			<input>
				<port id="0">
					<dim>1</dim>
					<dim>64</dim>
					<dim>300</dim>
					<dim>300</dim>
				</port>
			</input>
			<output>
				<port id="1">
					<dim>1</dim>
					<dim>64</dim>
					<dim>300</dim>
					<dim>300</dim>
				</port>
			</output>
		</layer>
		<layer id="3" name="conv1_2" precision="FP32" type="Convolution">
			<data dilations="1,1" group="1" kernel="3,3" output="64" pads_begin="1,1" pads_end="1,1" strides="1,1"/>
			<input>
				<port id="0">
					<dim>1</dim>
					<dim>64</dim>
					<dim>300</dim>
					<dim>300</dim>
				</port>
			</input>
			<output>
				<port id="3">
					<dim>1</dim>
					<dim>64</dim>
					<dim>300</dim>
					<dim>300</dim>
				</port>
			</output>
			<blobs>
				<weights offset="7168" size="147456"/>
				<biases offset="154624" size="256"/>
			</blobs>
		</layer>
		<layer id="4" name="relu1_2" precision="FP32" type="ReLU">
			<data negative_slope="0.0"/>
			<input>
				<port id="0">
					<dim>1</dim>
					<dim>64</dim>
					<dim>300</dim>
					<dim>300</dim>
				</port>
			</input>
			<output>
				<port id="1">
					<dim>1</dim>
					<dim>64</dim>
					<dim>300</dim>
					<dim>300</dim>
				</port>
			</output>
		</layer>
		<layer id="5" name="pool1" precision="FP32" type="Pooling">
			<data exclude-pad="true" kernel="2,2" pads_begin="0,0" pads_end="0,0" pool-method="max" rounding_type="ceil" strides="2,2"/>
			<input>
				<port id="0">
					<dim>1</dim>
					<dim>64</dim>
					<dim>300</dim>
					<dim>300</dim>
				</port>
			</input>
			<output>
				<port id="1">
					<dim>1</dim>
					<dim>64</dim>
					<dim>150</dim>
					<dim>150</dim>
				</port>
			</output>
		</layer>
		<layer id="6" name="conv2_1" precision="FP32" type="Convolution">
			<data dilations="1,1" group="1" kernel="3,3" output="128" pads_begin="1,1" pads_end="1,1" strides="1,1"/>
			<input>
				<port id="0">
					<dim>1</dim>
					<dim>64</dim>
					<dim>150</dim>
					<dim>150</dim>
				</port>
			</input>
			<output>
				<port id="3">
					<dim>1</dim>
					<dim>128</dim>
					<dim>150</dim>
					<dim>150</dim>
				</port>
			</output>
			<blobs>
				<weights offset="154880" size="294912"/>
				<biases offset="449792" size="512"/>
			</blobs>
		</layer>
		<layer id="7" name="relu2_1" precision="FP32" type="ReLU">
			<data negative_slope="0.0"/>
			<input>
				<port id="0">
					<dim>1</dim>
					<dim>128</dim>
					<dim>150</dim>
					<dim>150</dim>
				</port>
			</input>
			<output>
				<port id="1">
					<dim>1</dim>
					<dim>128</dim>
					<dim>150</dim>
					<dim>150</dim>
				</port>
			</output>
		</layer>
		<layer id="8" name="conv2_2" precision="FP32" type="Convolution">
			<data dilations="1,1" group="1" kernel="3,3" output="128" pads_begin="1,1" pads_end="1,1" strides="1,1"/>
			<input>
				<port id="0">
					<dim>1</dim>
					<dim>128</dim>
					<dim>150</dim>
					<dim>150</dim>
				</port>
			</input>
			<output>
				<port id="3">
					<dim>1</dim>
					<dim>128</dim>
					<dim>150</dim>
					<dim>150</dim>
				</port>
			</output>
			<blobs>
				<weights offset="450304" size="589824"/>
				<biases offset="1040128" size="512"/>
			</blobs>
		</layer>
		<layer id="9" name="relu2_2" precision="FP32" type="ReLU">
			<data negative_slope="0.0"/>
			<input>
				<port id="0">
					<dim>1</dim>
					<dim>128</dim>
					<dim>150</dim>
					<dim>150</dim>
				</port>
			</input>
			<output>
				<port id="1">
					<dim>1</dim>
					<dim>128</dim>
					<dim>150</dim>
					<dim>150</dim>
				</port>
			</output>
		</layer>
		<layer id="10" name="pool2" precision="FP32" type="Pooling">
			<data exclude-pad="true" kernel="2,2" pads_begin="0,0" pads_end="0,0" pool-method="max" rounding_type="ceil" strides="2,2"/>
			<input>
				<port id="0">
					<dim>1</dim>
					<dim>128</dim>
					<dim>150</dim>
					<dim>150</dim>
				</port>
			</input>
			<output>
				<port id="1">
					<dim>1</dim>
					<dim>128</dim>
					<dim>75</dim>
					<dim>75</dim>
				</port>
			</output>
		</layer>
		<layer id="11" name="conv3_1" precision="FP32" type="Convolution">
			<data dilations="1,1" group="1" kernel="3,3" output="256" pads_begin="1,1" pads_end="1,1" strides="1,1"/>
			<input>
				<port id="0">
					<dim>1</dim>
					<dim>128</dim>
					<dim>75</dim>
					<dim>75</dim>
				</port>
			</input>
			<output>
				<port id="3">
					<dim>1</dim>
					<dim>256</dim>
					<dim>75</dim>
					<dim>75</dim>
				</port>
			</output>
			<blobs>
				<weights offset="1040640" size="1179648"/>
				<biases offset="2220288" size="1024"/>
			</blobs>
		</layer>
		<layer id="12" name="relu3_1" precision="FP32" type="ReLU">
			<data negative_slope="0.0"/>
			<input>
				<port id="0">
					<dim>1</dim>
					<dim>256</dim>
					<dim>75</dim>
					<dim>75</dim>
				</port>
			</input>
			<output>
				<port id="1">
					<dim>1</dim>
					<dim>256</dim>
					<dim>75</dim>
					<dim>75</dim>
				</port>
			</output>
		</layer>
		<layer id="13" name="conv3_2" precision="FP32" type="Convolution">
			<data dilations="1,1" group="1" kernel="3,3" output="256" pads_begin="1,1" pads_end="1,1" strides="1,1"/>
			<input>
				<port id="0">
					<dim>1</dim>
					<dim>256</dim>
					<dim>75</dim>
					<dim>75</dim>
				</port>
			</input>
			<output>
				<port id="3">
					<dim>1</dim>
					<dim>256</dim>
					<dim>75</dim>
					<dim>75</dim>
				</port>
			</output>
			<blobs>
				<weights offset="2221312" size="2359296"/>
				<biases offset="4580608" size="1024"/>
			</blobs>
		</layer>
		<layer id="14" name="relu3_2" precision="FP32" type="ReLU">
			<data negative_slope="0.0"/>
			<input>
				<port id="0">
					<dim>1</dim>
					<dim>256</dim>
					<dim>75</dim>
					<dim>75</dim>
				</port>
			</input>
			<output>
				<port id="1">
					<dim>1</dim>
					<dim>256</dim>
					<dim>75</dim>
					<dim>75</dim>
				</port>
			</output>
		</layer>
		<layer id="15" name="conv3_3" precision="FP32" type="Convolution">
			<data dilations="1,1" group="1" kernel="3,3" output="256" pads_begin="1,1" pads_end="1,1" strides="1,1"/>
			<input>
				<port id="0">
					<dim>1</dim>
					<dim>256</dim>
					<dim>75</dim>
					<dim>75</dim>
				</port>
			</input>
			<output>
				<port id="3">
					<dim>1</dim>
					<dim>256</dim>
					<dim>75</dim>
					<dim>75</dim>
				</port>
			</output>
			<blobs>
				<weights offset="4581632" size="2359296"/>
				<biases offset="6940928" size="1024"/>
			</blobs>
		</layer>
		<layer id="16" name="relu3_3" precision="FP32" type="ReLU">
			<data negative_slope="0.0"/>
			<input>
				<port id="0">
					<dim>1</dim>
					<dim>256</dim>
					<dim>75</dim>
					<dim>75</dim>
				</port>
			</input>
			<output>
				<port id="1">
					<dim>1</dim>
					<dim>256</dim>
					<dim>75</dim>
					<dim>75</dim>
				</port>
			</output>
		</layer>
		<layer id="17" name="pool3" precision="FP32" type="Pooling">
			<data exclude-pad="true" kernel="2,2" pads_begin="0,0" pads_end="0,0" pool-method="max" rounding_type="ceil" strides="2,2"/>
			<input>
				<port id="0">
					<dim>1</dim>
					<dim>256</dim>
					<dim>75</dim>
					<dim>75</dim>
				</port>
			</input>
			<output>
				<port id="1">
					<dim>1</dim>
					<dim>256</dim>
					<dim>38</dim>
					<dim>38</dim>
				</port>
			</output>
		</layer>
		<layer id="18" name="conv4_1" precision="FP32" type="Convolution">
			<data dilations="1,1" group="1" kernel="3,3" output="512" pads_begin="1,1" pads_end="1,1" strides="1,1"/>
			<input>
				<port id="0">
					<dim>1</dim>
					<dim>256</dim>
					<dim>38</dim>
					<dim>38</dim>
				</port>
			</input>
			<output>
				<port id="3">
					<dim>1</dim>
					<dim>512</dim>
					<dim>38</dim>
					<dim>38</dim>
				</port>
			</output>
			<blobs>
				<weights offset="6941952" size="4718592"/>
				<biases offset="11660544" size="2048"/>
			</blobs>
		</layer>
		<layer id="19" name="relu4_1" precision="FP32" type="ReLU">
			<data negative_slope="0.0"/>
			<input>
				<port id="0">
					<dim>1</dim>
					<dim>512</dim>
					<dim>38</dim>
					<dim>38</dim>
				</port>
			</input>
			<output>
				<port id="1">
					<dim>1</dim>
					<dim>512</dim>
					<dim>38</dim>
					<dim>38</dim>
				</port>
			</output>
		</layer>
		<layer id="20" name="conv4_2" precision="FP32" type="Convolution">
			<data dilations="1,1" group="1" kernel="3,3" output="512" pads_begin="1,1" pads_end="1,1" strides="1,1"/>
			<input>
				<port id="0">
					<dim>1</dim>
					<dim>512</dim>
					<dim>38</dim>
					<dim>38</dim>
				</port>
			</input>
			<output>
				<port id="3">
					<dim>1</dim>
					<dim>512</dim>
					<dim>38</dim>
					<dim>38</dim>
				</port>
			</output>
			<blobs>
				<weights offset="11662592" size="9437184"/>
				<biases offset="21099776" size="2048"/>
			</blobs>
		</layer>
		<layer id="21" name="relu4_2" precision="FP32" type="ReLU">
			<data negative_slope="0.0"/>
			<input>
				<port id="0">
					<dim>1</dim>
					<dim>512</dim>
					<dim>38</dim>
					<dim>38</dim>
				</port>
			</input>
			<output>
				<port id="1">
					<dim>1</dim>
					<dim>512</dim>
					<dim>38</dim>
					<dim>38</dim>
				</port>
			</output>
		</layer>
		<layer id="22" name="conv4_3" precision="FP32" type="Convolution">
			<data dilations="1,1" group="1" kernel="3,3" output="512" pads_begin="1,1" pads_end="1,1" strides="1,1"/>
			<input>
				<port id="0">
					<dim>1</dim>
					<dim>512</dim>
					<dim>38</dim>
					<dim>38</dim>
				</port>
			</input>
			<output>
				<port id="3">
					<dim>1</dim>
					<dim>512</dim>
					<dim>38</dim>
					<dim>38</dim>
				</port>
			</output>
			<blobs>
				<weights offset="21101824" size="9437184"/>
				<biases offset="30539008" size="2048"/>
			</blobs>
		</layer>
		<layer id="23" name="relu4_3" precision="FP32" type="ReLU">
			<data negative_slope="0.0"/>
			<input>
				<port id="0">
					<dim>1</dim>
					<dim>512</dim>
					<dim>38</dim>
					<dim>38</dim>
				</port>
			</input>
			<output>
				<port id="1">
					<dim>1</dim>
					<dim>512</dim>
					<dim>38</dim>
					<dim>38</dim>
				</port>
			</output>
		</layer>
		<layer id="24" name="conv4_3_norm" precision="FP32" type="Normalize">
			<data across_spatial="0" channel_shared="0" eps="1.000000013351432e-10"/>
			<input>
				<port id="0">
					<dim>1</dim>
					<dim>512</dim>
					<dim>38</dim>
					<dim>38</dim>
				</port>
			</input>
			<output>
				<port id="2">
					<dim>1</dim>
					<dim>512</dim>
					<dim>38</dim>
					<dim>38</dim>
				</port>
			</output>
			<blobs>
				<weights offset="30541056" size="2048"/>
			</blobs>
		</layer>
		<layer id="25" name="conv4_3_norm_mbox_loc" precision="FP32" type="Convolution">
			<data dilations="1,1" group="1" kernel="3,3" output="16" pads_begin="1,1" pads_end="1,1" strides="1,1"/>
			<input>
				<port id="0">
					<dim>1</dim>
					<dim>512</dim>
					<dim>38</dim>
					<dim>38</dim>
				</port>
			</input>
			<output>
				<port id="3">
					<dim>1</dim>
					<dim>16</dim>
					<dim>38</dim>
					<dim>38</dim>
				</port>
			</output>
			<blobs>
				<weights offset="30543104" size="294912"/>
				<biases offset="30838016" size="64"/>
			</blobs>
		</layer>
		<layer id="26" name="conv4_3_norm_mbox_loc_perm" precision="FP32" type="Permute">
			<data order="0,2,3,1"/>
			<input>
				<port id="0">
					<dim>1</dim>
					<dim>16</dim>
					<dim>38</dim>
					<dim>38</dim>
				</port>
			</input>
			<output>
				<port id="1">
					<dim>1</dim>
					<dim>38</dim>
					<dim>38</dim>
					<dim>16</dim>
				</port>
			</output>
		</layer>
		<layer id="27" name="conv4_3_norm_mbox_loc_flat" precision="FP32" type="Flatten">
			<data axis="1" end_axis="-1"/>
			<input>
				<port id="0">
					<dim>1</dim>
					<dim>38</dim>
					<dim>38</dim>
					<dim>16</dim>
				</port>
			</input>
			<output>
				<port id="1">
					<dim>1</dim>
					<dim>23104</dim>
				</port>
			</output>
		</layer>
		<layer id="28" name="pool4" precision="FP32" type="Pooling">
			<data exclude-pad="true" kernel="2,2" pads_begin="0,0" pads_end="0,0" pool-method="max" rounding_type="ceil" strides="2,2"/>
			<input>
				<port id="0">
					<dim>1</dim>
					<dim>512</dim>
					<dim>38</dim>
					<dim>38</dim>
				</port>
			</input>
			<output>
				<port id="1">
					<dim>1</dim>
					<dim>512</dim>
					<dim>19</dim>
					<dim>19</dim>
				</port>
			</output>
		</layer>
		<layer id="29" name="conv5_1" precision="FP32" type="Convolution">
			<data dilations="1,1" group="1" kernel="3,3" output="512" pads_begin="1,1" pads_end="1,1" strides="1,1"/>
			<input>
				<port id="0">
					<dim>1</dim>
					<dim>512</dim>
					<dim>19</dim>
					<dim>19</dim>
				</port>
			</input>
			<output>
				<port id="3">
					<dim>1</dim>
					<dim>512</dim>
					<dim>19</dim>
					<dim>19</dim>
				</port>
			</output>
			<blobs>
				<weights offset="30838080" size="9437184"/>
				<biases offset="40275264" size="2048"/>
			</blobs>
		</layer>
		<layer id="30" name="relu5_1" precision="FP32" type="ReLU">
			<data negative_slope="0.0"/>
			<input>
				<port id="0">
					<dim>1</dim>
					<dim>512</dim>
					<dim>19</dim>
					<dim>19</dim>
				</port>
			</input>
			<output>
				<port id="1">
					<dim>1</dim>
					<dim>512</dim>
					<dim>19</dim>
					<dim>19</dim>
				</port>
			</output>
		</layer>
		<layer id="31" name="conv5_2" precision="FP32" type="Convolution">
			<data dilations="1,1" group="1" kernel="3,3" output="512" pads_begin="1,1" pads_end="1,1" strides="1,1"/>
			<input>
				<port id="0">
					<dim>1</dim>
					<dim>512</dim>
					<dim>19</dim>
					<dim>19</dim>
				</port>
			</input>
			<output>
				<port id="3">
					<dim>1</dim>
					<dim>512</dim>
					<dim>19</dim>
					<dim>19</dim>
				</port>
			</output>
			<blobs>
				<weights offset="40277312" size="9437184"/>
				<biases offset="49714496" size="2048"/>
			</blobs>
		</layer>
		<layer id="32" name="relu5_2" precision="FP32" type="ReLU">
			<data negative_slope="0.0"/>
			<input>
				<port id="0">
					<dim>1</dim>
					<dim>512</dim>
					<dim>19</dim>
					<dim>19</dim>
				</port>
			</input>
			<output>
				<port id="1">
					<dim>1</dim>
					<dim>512</dim>
					<dim>19</dim>
					<dim>19</dim>
				</port>
			</output>
		</layer>
		<layer id="33" name="conv5_3" precision="FP32" type="Convolution">
			<data dilations="1,1" group="1" kernel="3,3" output="512" pads_begin="1,1" pads_end="1,1" strides="1,1"/>
			<input>
				<port id="0">
					<dim>1</dim>
					<dim>512</dim>
					<dim>19</dim>
					<dim>19</dim>
				</port>
			</input>
			<output>
				<port id="3">
					<dim>1</dim>
					<dim>512</dim>
					<dim>19</dim>
					<dim>19</dim>
				</port>
			</output>
			<blobs>
				<weights offset="49716544" size="9437184"/>
				<biases offset="59153728" size="2048"/>
			</blobs>
		</layer>
		<layer id="34" name="relu5_3" precision="FP32" type="ReLU">
			<data negative_slope="0.0"/>
			<input>
				<port id="0">
					<dim>1</dim>
					<dim>512</dim>
					<dim>19</dim>
					<dim>19</dim>
				</port>
			</input>
			<output>
				<port id="1">
					<dim>1</dim>
					<dim>512</dim>
					<dim>19</dim>
					<dim>19</dim>
				</port>
			</output>
		</layer>
		<layer id="35" name="pool5" precision="FP32" type="Pooling">
			<data exclude-pad="true" kernel="3,3" pads_begin="1,1" pads_end="1,1" pool-method="max" rounding_type="ceil" strides="1,1"/>
			<input>
				<port id="0">
					<dim>1</dim>
					<dim>512</dim>
					<dim>19</dim>
					<dim>19</dim>
				</port>
			</input>
			<output>
				<port id="1">
					<dim>1</dim>
					<dim>512</dim>
					<dim>19</dim>
					<dim>19</dim>
				</port>
			</output>
		</layer>
		<layer id="36" name="fc6" precision="FP32" type="Convolution">
			<data dilations="6,6" group="1" kernel="3,3" output="1024" pads_begin="6,6" pads_end="6,6" strides="1,1"/>
			<input>
				<port id="0">
					<dim>1</dim>
					<dim>512</dim>
					<dim>19</dim>
					<dim>19</dim>
				</port>
			</input>
			<output>
				<port id="3">
					<dim>1</dim>
					<dim>1024</dim>
					<dim>19</dim>
					<dim>19</dim>
				</port>
			</output>
			<blobs>
				<weights offset="59155776" size="18874368"/>
				<biases offset="78030144" size="4096"/>
			</blobs>
		</layer>
		<layer id="37" name="relu6" precision="FP32" type="ReLU">
			<data negative_slope="0.0"/>
			<input>
				<port id="0">
					<dim>1</dim>
					<dim>1024</dim>
					<dim>19</dim>
					<dim>19</dim>
				</port>
			</input>
			<output>
				<port id="1">
					<dim>1</dim>
					<dim>1024</dim>
					<dim>19</dim>
					<dim>19</dim>
				</port>
			</output>
		</layer>
		<layer id="38" name="fc7" precision="FP32" type="Convolution">
			<data dilations="1,1" group="1" kernel="1,1" output="1024" pads_begin="0,0" pads_end="0,0" strides="1,1"/>
			<input>
				<port id="0">
					<dim>1</dim>
					<dim>1024</dim>
					<dim>19</dim>
					<dim>19</dim>
				</port>
			</input>
			<output>
				<port id="3">
					<dim>1</dim>
					<dim>1024</dim>
					<dim>19</dim>
					<dim>19</dim>
				</port>
			</output>
			<blobs>
				<weights offset="78034240" size="4194304"/>
				<biases offset="82228544" size="4096"/>
			</blobs>
		</layer>
		<layer id="39" name="relu7" precision="FP32" type="ReLU">
			<data negative_slope="0.0"/>
			<input>
				<port id="0">
					<dim>1</dim>
					<dim>1024</dim>
					<dim>19</dim>
					<dim>19</dim>
				</port>
			</input>
			<output>
				<port id="1">
					<dim>1</dim>
					<dim>1024</dim>
					<dim>19</dim>
					<dim>19</dim>
				</port>
			</output>
		</layer>
		<layer id="40" name="fc7_mbox_loc" precision="FP32" type="Convolution">
			<data dilations="1,1" group="1" kernel="3,3" output="24" pads_begin="1,1" pads_end="1,1" strides="1,1"/>
			<input>
				<port id="0">
					<dim>1</dim>
					<dim>1024</dim>
					<dim>19</dim>
					<dim>19</dim>
				</port>
			</input>
			<output>
				<port id="3">
					<dim>1</dim>
					<dim>24</dim>
					<dim>19</dim>
					<dim>19</dim>
				</port>
			</output>
			<blobs>
				<weights offset="82232640" size="884736"/>
				<biases offset="83117376" size="96"/>
			</blobs>
		</layer>
		<layer id="41" name="fc7_mbox_loc_perm" precision="FP32" type="Permute">
			<data order="0,2,3,1"/>
			<input>
				<port id="0">
					<dim>1</dim>
					<dim>24</dim>
					<dim>19</dim>
					<dim>19</dim>
				</port>
			</input>
			<output>
				<port id="1">
					<dim>1</dim>
					<dim>19</dim>
					<dim>19</dim>
					<dim>24</dim>
				</port>
			</output>
		</layer>
		<layer id="42" name="fc7_mbox_loc_flat" precision="FP32" type="Flatten">
			<data axis="1" end_axis="-1"/>
			<input>
				<port id="0">
					<dim>1</dim>
					<dim>19</dim>
					<dim>19</dim>
					<dim>24</dim>
				</port>
			</input>
			<output>
				<port id="1">
					<dim>1</dim>
					<dim>8664</dim>
				</port>
			</output>
		</layer>
		<layer id="43" name="conv6_1" precision="FP32" type="Convolution">
			<data dilations="1,1" group="1" kernel="1,1" output="256" pads_begin="0,0" pads_end="0,0" strides="1,1"/>
			<input>
				<port id="0">
					<dim>1</dim>
					<dim>1024</dim>
					<dim>19</dim>
					<dim>19</dim>
				</port>
			</input>
			<output>
				<port id="3">
					<dim>1</dim>
					<dim>256</dim>
					<dim>19</dim>
					<dim>19</dim>
				</port>
			</output>
			<blobs>
				<weights offset="83117472" size="1048576"/>
				<biases offset="84166048" size="1024"/>
			</blobs>
		</layer>
		<layer id="44" name="conv6_1_relu" precision="FP32" type="ReLU">
			<data negative_slope="0.0"/>
			<input>
				<port id="0">
					<dim>1</dim>
					<dim>256</dim>
					<dim>19</dim>
					<dim>19</dim>
				</port>
			</input>
			<output>
				<port id="1">
					<dim>1</dim>
					<dim>256</dim>
					<dim>19</dim>
					<dim>19</dim>
				</port>
			</output>
		</layer>
		<layer id="45" name="conv6_2" precision="FP32" type="Convolution">
			<data dilations="1,1" group="1" kernel="3,3" output="512" pads_begin="1,1" pads_end="1,1" strides="2,2"/>
			<input>
				<port id="0">
					<dim>1</dim>
					<dim>256</dim>
					<dim>19</dim>
					<dim>19</dim>
				</port>
			</input>
			<output>
				<port id="3">
					<dim>1</dim>
					<dim>512</dim>
					<dim>10</dim>
					<dim>10</dim>
				</port>
			</output>
			<blobs>
				<weights offset="84167072" size="4718592"/>
				<biases offset="88885664" size="2048"/>
			</blobs>
		</layer>
		<layer id="46" name="conv6_2_relu" precision="FP32" type="ReLU">
			<data negative_slope="0.0"/>
			<input>
				<port id="0">
					<dim>1</dim>
					<dim>512</dim>
					<dim>10</dim>
					<dim>10</dim>
				</port>
			</input>
			<output>
				<port id="1">
					<dim>1</dim>
					<dim>512</dim>
					<dim>10</dim>
					<dim>10</dim>
				</port>
			</output>
		</layer>
		<layer id="47" name="conv6_2_mbox_loc" precision="FP32" type="Convolution">
			<data dilations="1,1" group="1" kernel="3,3" output="24" pads_begin="1,1" pads_end="1,1" strides="1,1"/>
			<input>
				<port id="0">
					<dim>1</dim>
					<dim>512</dim>
					<dim>10</dim>
					<dim>10</dim>
				</port>
			</input>
			<output>
				<port id="3">
					<dim>1</dim>
					<dim>24</dim>
					<dim>10</dim>
					<dim>10</dim>
				</port>
			</output>
			<blobs>
				<weights offset="88887712" size="442368"/>
				<biases offset="89330080" size="96"/>
			</blobs>
		</layer>
		<layer id="48" name="conv6_2_mbox_loc_perm" precision="FP32" type="Permute">
			<data order="0,2,3,1"/>
			<input>
				<port id="0">
					<dim>1</dim>
					<dim>24</dim>
					<dim>10</dim>
					<dim>10</dim>
				</port>
			</input>
			<output>
				<port id="1">
					<dim>1</dim>
					<dim>10</dim>
					<dim>10</dim>
					<dim>24</dim>
				</port>
			</output>
		</layer>
		<layer id="49" name="conv6_2_mbox_loc_flat" precision="FP32" type="Flatten">
			<data axis="1" end_axis="-1"/>
			<input>
				<port id="0">
					<dim>1</dim>
					<dim>10</dim>
					<dim>10</dim>
					<dim>24</dim>
				</port>
			</input>
			<output>
				<port id="1">
					<dim>1</dim>
					<dim>2400</dim>
				</port>
			</output>
		</layer>
		<layer id="50" name="conv7_1" precision="FP32" type="Convolution">
			<data dilations="1,1" group="1" kernel="1,1" output="128" pads_begin="0,0" pads_end="0,0" strides="1,1"/>
			<input>
				<port id="0">
					<dim>1</dim>
					<dim>512</dim>
					<dim>10</dim>
					<dim>10</dim>
				</port>
			</input>
			<output>
				<port id="3">
					<dim>1</dim>
					<dim>128</dim>
					<dim>10</dim>
					<dim>10</dim>
				</port>
			</output>
			<blobs>
				<weights offset="89330176" size="262144"/>
				<biases offset="89592320" size="512"/>
			</blobs>
		</layer>
		<layer id="51" name="conv7_1_relu" precision="FP32" type="ReLU">
			<data negative_slope="0.0"/>
			<input>
				<port id="0">
					<dim>1</dim>
					<dim>128</dim>
					<dim>10</dim>
					<dim>10</dim>
				</port>
			</input>
			<output>
				<port id="1">
					<dim>1</dim>
					<dim>128</dim>
					<dim>10</dim>
					<dim>10</dim>
				</port>
			</output>
		</layer>
		<layer id="52" name="conv7_2" precision="FP32" type="Convolution">
			<data dilations="1,1" group="1" kernel="3,3" output="256" pads_begin="1,1" pads_end="1,1" strides="2,2"/>
			<input>
				<port id="0">
					<dim>1</dim>
					<dim>128</dim>
					<dim>10</dim>
					<dim>10</dim>
				</port>
			</input>
			<output>
				<port id="3">
					<dim>1</dim>
					<dim>256</dim>
					<dim>5</dim>
					<dim>5</dim>
				</port>
			</output>
			<blobs>
				<weights offset="89592832" size="1179648"/>
				<biases offset="90772480" size="1024"/>
			</blobs>
		</layer>
		<layer id="53" name="conv7_2_relu" precision="FP32" type="ReLU">
			<data negative_slope="0.0"/>
			<input>
				<port id="0">
					<dim>1</dim>
					<dim>256</dim>
					<dim>5</dim>
					<dim>5</dim>
				</port>
			</input>
			<output>
				<port id="1">
					<dim>1</dim>
					<dim>256</dim>
					<dim>5</dim>
					<dim>5</dim>
				</port>
			</output>
		</layer>
		<layer id="54" name="conv7_2_mbox_loc" precision="FP32" type="Convolution">
			<data dilations="1,1" group="1" kernel="3,3" output="24" pads_begin="1,1" pads_end="1,1" strides="1,1"/>
			<input>
				<port id="0">
					<dim>1</dim>
					<dim>256</dim>
					<dim>5</dim>
					<dim>5</dim>
				</port>
			</input>
			<output>
				<port id="3">
					<dim>1</dim>
					<dim>24</dim>
					<dim>5</dim>
					<dim>5</dim>
				</port>
			</output>
			<blobs>
				<weights offset="90773504" size="221184"/>
				<biases offset="90994688" size="96"/>
			</blobs>
		</layer>
		<layer id="55" name="conv7_2_mbox_loc_perm" precision="FP32" type="Permute">
			<data order="0,2,3,1"/>
			<input>
				<port id="0">
					<dim>1</dim>
					<dim>24</dim>
					<dim>5</dim>
					<dim>5</dim>
				</port>
			</input>
			<output>
				<port id="1">
					<dim>1</dim>
					<dim>5</dim>
					<dim>5</dim>
					<dim>24</dim>
				</port>
			</output>
		</layer>
		<layer id="56" name="conv7_2_mbox_loc_flat" precision="FP32" type="Flatten">
			<data axis="1" end_axis="-1"/>
			<input>
				<port id="0">
					<dim>1</dim>
					<dim>5</dim>
					<dim>5</dim>
					<dim>24</dim>
				</port>
			</input>
			<output>
				<port id="1">
					<dim>1</dim>
					<dim>600</dim>
				</port>
			</output>
		</layer>
		<layer id="57" name="conv8_1" precision="FP32" type="Convolution">
			<data dilations="1,1" group="1" kernel="1,1" output="128" pads_begin="0,0" pads_end="0,0" strides="1,1"/>
			<input>
				<port id="0">
					<dim>1</dim>
					<dim>256</dim>
					<dim>5</dim>
					<dim>5</dim>
				</port>
			</input>
			<output>
				<port id="3">
					<dim>1</dim>
					<dim>128</dim>
					<dim>5</dim>
					<dim>5</dim>
				</port>
			</output>
			<blobs>
				<weights offset="90994784" size="131072"/>
				<biases offset="91125856" size="512"/>
			</blobs>
		</layer>
		<layer id="58" name="conv8_1_relu" precision="FP32" type="ReLU">
			<data negative_slope="0.0"/>
			<input>
				<port id="0">
					<dim>1</dim>
					<dim>128</dim>
					<dim>5</dim>
					<dim>5</dim>
				</port>
			</input>
			<output>
				<port id="1">
					<dim>1</dim>
					<dim>128</dim>
					<dim>5</dim>
					<dim>5</dim>
				</port>
			</output>
		</layer>
		<layer id="59" name="conv8_2" precision="FP32" type="Convolution">
			<data dilations="1,1" group="1" kernel="3,3" output="256" pads_begin="0,0" pads_end="0,0" strides="1,1"/>
			<input>
				<port id="0">
					<dim>1</dim>
					<dim>128</dim>
					<dim>5</dim>
					<dim>5</dim>
				</port>
			</input>
			<output>
				<port id="3">
					<dim>1</dim>
					<dim>256</dim>
					<dim>3</dim>
					<dim>3</dim>
				</port>
			</output>
			<blobs>
				<weights offset="91126368" size="1179648"/>
				<biases offset="92306016" size="1024"/>
			</blobs>
		</layer>
		<layer id="60" name="conv8_2_relu" precision="FP32" type="ReLU">
			<data negative_slope="0.0"/>
			<input>
				<port id="0">
					<dim>1</dim>
					<dim>256</dim>
					<dim>3</dim>
					<dim>3</dim>
				</port>
			</input>
			<output>
				<port id="1">
					<dim>1</dim>
					<dim>256</dim>
					<dim>3</dim>
					<dim>3</dim>
				</port>
			</output>
		</layer>
		<layer id="61" name="conv8_2_mbox_loc" precision="FP32" type="Convolution">
			<data dilations="1,1" group="1" kernel="3,3" output="16" pads_begin="1,1" pads_end="1,1" strides="1,1"/>
			<input>
				<port id="0">
					<dim>1</dim>
					<dim>256</dim>
					<dim>3</dim>
					<dim>3</dim>
				</port>
			</input>
			<output>
				<port id="3">
					<dim>1</dim>
					<dim>16</dim>
					<dim>3</dim>
					<dim>3</dim>
				</port>
			</output>
			<blobs>
				<weights offset="92307040" size="147456"/>
				<biases offset="92454496" size="64"/>
			</blobs>
		</layer>
		<layer id="62" name="conv8_2_mbox_loc_perm" precision="FP32" type="Permute">
			<data order="0,2,3,1"/>
			<input>
				<port id="0">
					<dim>1</dim>
					<dim>16</dim>
					<dim>3</dim>
					<dim>3</dim>
				</port>
			</input>
			<output>
				<port id="1">
					<dim>1</dim>
					<dim>3</dim>
					<dim>3</dim>
					<dim>16</dim>
				</port>
			</output>
		</layer>
		<layer id="63" name="conv8_2_mbox_loc_flat" precision="FP32" type="Flatten">
			<data axis="1" end_axis="-1"/>
			<input>
				<port id="0">
					<dim>1</dim>
					<dim>3</dim>
					<dim>3</dim>
					<dim>16</dim>
				</port>
			</input>
			<output>
				<port id="1">
					<dim>1</dim>
					<dim>144</dim>
				</port>
			</output>
		</layer>
		<layer id="64" name="conv9_1" precision="FP32" type="Convolution">
			<data dilations="1,1" group="1" kernel="1,1" output="128" pads_begin="0,0" pads_end="0,0" strides="1,1"/>
			<input>
				<port id="0">
					<dim>1</dim>
					<dim>256</dim>
					<dim>3</dim>
					<dim>3</dim>
				</port>
			</input>
			<output>
				<port id="3">
					<dim>1</dim>
					<dim>128</dim>
					<dim>3</dim>
					<dim>3</dim>
				</port>
			</output>
			<blobs>
				<weights offset="92454560" size="131072"/>
				<biases offset="92585632" size="512"/>
			</blobs>
		</layer>
		<layer id="65" name="conv9_1_relu" precision="FP32" type="ReLU">
			<data negative_slope="0.0"/>
			<input>
				<port id="0">
					<dim>1</dim>
					<dim>128</dim>
					<dim>3</dim>
					<dim>3</dim>
				</port>
			</input>
			<output>
				<port id="1">
					<dim>1</dim>
					<dim>128</dim>
					<dim>3</dim>
					<dim>3</dim>
				</port>
			</output>
		</layer>
		<layer id="66" name="conv9_2" precision="FP32" type="Convolution">
			<data dilations="1,1" group="1" kernel="3,3" output="256" pads_begin="0,0" pads_end="0,0" strides="1,1"/>
			<input>
				<port id="0">
					<dim>1</dim>
					<dim>128</dim>
					<dim>3</dim>
					<dim>3</dim>
				</port>
			</input>
			<output>
				<port id="3">
					<dim>1</dim>
					<dim>256</dim>
					<dim>1</dim>
					<dim>1</dim>
				</port>
			</output>
			<blobs>
				<weights offset="92586144" size="1179648"/>
				<biases offset="93765792" size="1024"/>
			</blobs>
		</layer>
		<layer id="67" name="conv9_2_relu" precision="FP32" type="ReLU">
			<data negative_slope="0.0"/>
			<input>
				<port id="0">
					<dim>1</dim>
					<dim>256</dim>
					<dim>1</dim>
					<dim>1</dim>
				</port>
			</input>
			<output>
				<port id="1">
					<dim>1</dim>
					<dim>256</dim>
					<dim>1</dim>
					<dim>1</dim>
				</port>
			</output>
		</layer>
		<layer id="68" name="conv9_2_mbox_loc" precision="FP32" type="Convolution">
			<data dilations="1,1" group="1" kernel="3,3" output="16" pads_begin="1,1" pads_end="1,1" strides="1,1"/>
			<input>
				<port id="0">
					<dim>1</dim>
					<dim>256</dim>
					<dim>1</dim>
					<dim>1</dim>
				</port>
			</input>
			<output>
				<port id="3">
					<dim>1</dim>
					<dim>16</dim>
					<dim>1</dim>
					<dim>1</dim>
				</port>
			</output>
			<blobs>
				<weights offset="93766816" size="147456"/>
				<biases offset="93914272" size="64"/>
			</blobs>
		</layer>
		<layer id="69" name="conv9_2_mbox_loc_perm" precision="FP32" type="Permute">
			<data order="0,2,3,1"/>
			<input>
				<port id="0">
					<dim>1</dim>
					<dim>16</dim>
					<dim>1</dim>
					<dim>1</dim>
				</port>
			</input>
			<output>
				<port id="1">
					<dim>1</dim>
					<dim>1</dim>
					<dim>1</dim>
					<dim>16</dim>
				</port>
			</output>
		</layer>
		<layer id="70" name="conv9_2_mbox_loc_flat" precision="FP32" type="Flatten">
			<data axis="1" end_axis="-1"/>
			<input>
				<port id="0">
					<dim>1</dim>
					<dim>1</dim>
					<dim>1</dim>
					<dim>16</dim>
				</port>
			</input>
			<output>
				<port id="1">
					<dim>1</dim>
					<dim>16</dim>
				</port>
			</output>
		</layer>
		<layer id="71" name="mbox_loc" precision="FP32" type="Concat">
			<data axis="1"/>
			<input>
				<port id="0">
					<dim>1</dim>
					<dim>23104</dim>
				</port>
				<port id="1">
					<dim>1</dim>
					<dim>8664</dim>
				</port>
				<port id="2">
					<dim>1</dim>
					<dim>2400</dim>
				</port>
				<port id="3">
					<dim>1</dim>
					<dim>600</dim>
				</port>
				<port id="4">
					<dim>1</dim>
					<dim>144</dim>
				</port>
				<port id="5">
					<dim>1</dim>
					<dim>16</dim>
				</port>
			</input>
			<output>
				<port id="6">
					<dim>1</dim>
					<dim>34928</dim>
				</port>
			</output>
		</layer>
		<layer id="72" name="conv4_3_norm_mbox_conf" precision="FP32" type="Convolution">
			<data dilations="1,1" group="1" kernel="3,3" output="84" pads_begin="1,1" pads_end="1,1" strides="1,1"/>
			<input>
				<port id="0">
					<dim>1</dim>
					<dim>512</dim>
					<dim>38</dim>
					<dim>38</dim>
				</port>
			</input>
			<output>
				<port id="3">
					<dim>1</dim>
					<dim>84</dim>
					<dim>38</dim>
					<dim>38</dim>
				</port>
			</output>
			<blobs>
				<weights offset="93914336" size="1548288"/>
				<biases offset="95462624" size="336"/>
			</blobs>
		</layer>
		<layer id="73" name="conv4_3_norm_mbox_conf_perm" precision="FP32" type="Permute">
			<data order="0,2,3,1"/>
			<input>
				<port id="0">
					<dim>1</dim>
					<dim>84</dim>
					<dim>38</dim>
					<dim>38</dim>
				</port>
			</input>
			<output>
				<port id="1">
					<dim>1</dim>
					<dim>38</dim>
					<dim>38</dim>
					<dim>84</dim>
				</port>
			</output>
		</layer>
		<layer id="74" name="conv4_3_norm_mbox_conf_flat" precision="FP32" type="Flatten">
			<data axis="1" end_axis="-1"/>
			<input>
				<port id="0">
					<dim>1</dim>
					<dim>38</dim>
					<dim>38</dim>
					<dim>84</dim>
				</port>
			</input>
			<output>
				<port id="1">
					<dim>1</dim>
					<dim>121296</dim>
				</port>
			</output>
		</layer>
		<layer id="75" name="fc7_mbox_conf" precision="FP32" type="Convolution">
			<data dilations="1,1" group="1" kernel="3,3" output="126" pads_begin="1,1" pads_end="1,1" strides="1,1"/>
			<input>
				<port id="0">
					<dim>1</dim>
					<dim>1024</dim>
					<dim>19</dim>
					<dim>19</dim>
				</port>
			</input>
			<output>
				<port id="3">
					<dim>1</dim>
					<dim>126</dim>
					<dim>19</dim>
					<dim>19</dim>
				</port>
			</output>
			<blobs>
				<weights offset="95462960" size="4644864"/>
				<biases offset="100107824" size="504"/>
			</blobs>
		</layer>
		<layer id="76" name="fc7_mbox_conf_perm" precision="FP32" type="Permute">
			<data order="0,2,3,1"/>
			<input>
				<port id="0">
					<dim>1</dim>
					<dim>126</dim>
					<dim>19</dim>
					<dim>19</dim>
				</port>
			</input>
			<output>
				<port id="1">
					<dim>1</dim>
					<dim>19</dim>
					<dim>19</dim>
					<dim>126</dim>
				</port>
			</output>
		</layer>
		<layer id="77" name="fc7_mbox_conf_flat" precision="FP32" type="Flatten">
			<data axis="1" end_axis="-1"/>
			<input>
				<port id="0">
					<dim>1</dim>
					<dim>19</dim>
					<dim>19</dim>
					<dim>126</dim>
				</port>
			</input>
			<output>
				<port id="1">
					<dim>1</dim>
					<dim>45486</dim>
				</port>
			</output>
		</layer>
		<layer id="78" name="conv6_2_mbox_conf" precision="FP32" type="Convolution">
			<data dilations="1,1" group="1" kernel="3,3" output="126" pads_begin="1,1" pads_end="1,1" strides="1,1"/>
			<input>
				<port id="0">
					<dim>1</dim>
					<dim>512</dim>
					<dim>10</dim>
					<dim>10</dim>
				</port>
			</input>
			<output>
				<port id="3">
					<dim>1</dim>
					<dim>126</dim>
					<dim>10</dim>
					<dim>10</dim>
				</port>
			</output>
			<blobs>
				<weights offset="100108328" size="2322432"/>
				<biases offset="102430760" size="504"/>
			</blobs>
		</layer>
		<layer id="79" name="conv6_2_mbox_conf_perm" precision="FP32" type="Permute">
			<data order="0,2,3,1"/>
			<input>
				<port id="0">
					<dim>1</dim>
					<dim>126</dim>
					<dim>10</dim>
					<dim>10</dim>
				</port>
			</input>
			<output>
				<port id="1">
					<dim>1</dim>
					<dim>10</dim>
					<dim>10</dim>
					<dim>126</dim>
				</port>
			</output>
		</layer>
		<layer id="80" name="conv6_2_mbox_conf_flat" precision="FP32" type="Flatten">
			<data axis="1" end_axis="-1"/>
			<input>
				<port id="0">
					<dim>1</dim>
					<dim>10</dim>
					<dim>10</dim>
					<dim>126</dim>
				</port>
			</input>
			<output>
				<port id="1">
					<dim>1</dim>
					<dim>12600</dim>
				</port>
			</output>
		</layer>
		<layer id="81" name="conv7_2_mbox_conf" precision="FP32" type="Convolution">
			<data dilations="1,1" group="1" kernel="3,3" output="126" pads_begin="1,1" pads_end="1,1" strides="1,1"/>
			<input>
				<port id="0">
					<dim>1</dim>
					<dim>256</dim>
					<dim>5</dim>
					<dim>5</dim>
				</port>
			</input>
			<output>
				<port id="3">
					<dim>1</dim>
					<dim>126</dim>
					<dim>5</dim>
					<dim>5</dim>
				</port>
			</output>
			<blobs>
				<weights offset="102431264" size="1161216"/>
				<biases offset="103592480" size="504"/>
			</blobs>
		</layer>
		<layer id="82" name="conv7_2_mbox_conf_perm" precision="FP32" type="Permute">
			<data order="0,2,3,1"/>
			<input>
				<port id="0">
					<dim>1</dim>
					<dim>126</dim>
					<dim>5</dim>
					<dim>5</dim>
				</port>
			</input>
			<output>
				<port id="1">
					<dim>1</dim>
					<dim>5</dim>
					<dim>5</dim>
					<dim>126</dim>
				</port>
			</output>
		</layer>
		<layer id="83" name="conv7_2_mbox_conf_flat" precision="FP32" type="Flatten">
			<data axis="1" end_axis="-1"/>
			<input>
				<port id="0">
					<dim>1</dim>
					<dim>5</dim>
					<dim>5</dim>
					<dim>126</dim>
				</port>
			</input>
			<output>
				<port id="1">
					<dim>1</dim>
					<dim>3150</dim>
				</port>
			</output>
		</layer>
		<layer id="84" name="conv8_2_mbox_conf" precision="FP32" type="Convolution">
			<data dilations="1,1" group="1" kernel="3,3" output="84" pads_begin="1,1" pads_end="1,1" strides="1,1"/>
			<input>
				<port id="0">
					<dim>1</dim>
					<dim>256</dim>
					<dim>3</dim>
					<dim>3</dim>
				</port>
			</input>
			<output>
				<port id="3">
					<dim>1</dim>
					<dim>84</dim>
					<dim>3</dim>
					<dim>3</dim>
				</port>
			</output>
			<blobs>
				<weights offset="103592984" size="774144"/>
				<biases offset="104367128" size="336"/>
			</blobs>
		</layer>
		<layer id="85" name="conv8_2_mbox_conf_perm" precision="FP32" type="Permute">
			<data order="0,2,3,1"/>
			<input>
				<port id="0">
					<dim>1</dim>
					<dim>84</dim>
					<dim>3</dim>
					<dim>3</dim>
				</port>
			</input>
			<output>
				<port id="1">
					<dim>1</dim>
					<dim>3</dim>
					<dim>3</dim>
					<dim>84</dim>
				</port>
			</output>
		</layer>
		<layer id="86" name="conv8_2_mbox_conf_flat" precision="FP32" type="Flatten">
			<data axis="1" end_axis="-1"/>
			<input>
				<port id="0">
					<dim>1</dim>
					<dim>3</dim>
					<dim>3</dim>
					<dim>84</dim>
				</port>
			</input>
			<output>
				<port id="1">
					<dim>1</dim>
					<dim>756</dim>
				</port>
			</output>
		</layer>
		<layer id="87" name="conv9_2_mbox_conf" precision="FP32" type="Convolution">
			<data dilations="1,1" group="1" kernel="3,3" output="84" pads_begin="1,1" pads_end="1,1" strides="1,1"/>
			<input>
				<port id="0">
					<dim>1</dim>
					<dim>256</dim>
					<dim>1</dim>
					<dim>1</dim>
				</port>
			</input>
			<output>
				<port id="3">
					<dim>1</dim>
					<dim>84</dim>
					<dim>1</dim>
					<dim>1</dim>
				</port>
			</output>
			<blobs>
				<weights offset="104367464" size="774144"/>
				<biases offset="105141608" size="336"/>
			</blobs>
		</layer>
		<layer id="88" name="conv9_2_mbox_conf_perm" precision="FP32" type="Permute">
			<data order="0,2,3,1"/>
			<input>
				<port id="0">
					<dim>1</dim>
					<dim>84</dim>
					<dim>1</dim>
					<dim>1</dim>
				</port>
			</input>
			<output>
				<port id="1">
					<dim>1</dim>
					<dim>1</dim>
					<dim>1</dim>
					<dim>84</dim>
				</port>
			</output>
		</layer>
		<layer id="89" name="conv9_2_mbox_conf_flat" precision="FP32" type="Flatten">
			<data axis="1" end_axis="-1"/>
			<input>
				<port id="0">
					<dim>1</dim>
					<dim>1</dim>
					<dim>1</dim>
					<dim>84</dim>
				</port>
			</input>
			<output>
				<port id="1">
					<dim>1</dim>
					<dim>84</dim>
				</port>
			</output>
		</layer>
		<layer id="90" name="mbox_conf" precision="FP32" type="Concat">
			<data axis="1"/>
			<input>
				<port id="0">
					<dim>1</dim>
					<dim>121296</dim>
				</port>
				<port id="1">
					<dim>1</dim>
					<dim>45486</dim>
				</port>
				<port id="2">
					<dim>1</dim>
					<dim>12600</dim>
				</port>
				<port id="3">
					<dim>1</dim>
					<dim>3150</dim>
				</port>
				<port id="4">
					<dim>1</dim>
					<dim>756</dim>
				</port>
				<port id="5">
					<dim>1</dim>
					<dim>84</dim>
				</port>
			</input>
			<output>
				<port id="6">
					<dim>1</dim>
					<dim>183372</dim>
				</port>
			</output>
		</layer>
		<layer id="91" name="mbox_conf_reshape/DimData_const" precision="FP32" type="Const">
			<output>
				<port id="1">
					<dim>3</dim>
				</port>
			</output>
			<blobs>
				<custom offset="105141944" size="12"/>
			</blobs>
		</layer>
		<layer id="92" name="mbox_conf_reshape" precision="FP32" type="Reshape">
			<data axis="0" num_axes="-1"/>
			<input>
				<port id="0">
					<dim>1</dim>
					<dim>183372</dim>
				</port>
				<port id="1">
					<dim>3</dim>
				</port>
			</input>
			<output>
				<port id="2">
					<dim>1</dim>
					<dim>8732</dim>
					<dim>21</dim>
				</port>
			</output>
		</layer>
		<layer id="93" name="mbox_conf_softmax" precision="FP32" type="SoftMax">
			<data axis="2"/>
			<input>
				<port id="0">
					<dim>1</dim>
					<dim>8732</dim>
					<dim>21</dim>
				</port>
			</input>
			<output>
				<port id="1">
					<dim>1</dim>
					<dim>8732</dim>
					<dim>21</dim>
				</port>
			</output>
		</layer>
		<layer id="94" name="mbox_conf_flatten" precision="FP32" type="Flatten">
			<data axis="1" end_axis="-1"/>
			<input>
				<port id="0">
					<dim>1</dim>
					<dim>8732</dim>
					<dim>21</dim>
				</port>
			</input>
			<output>
				<port id="1">
					<dim>1</dim>
					<dim>183372</dim>
				</port>
			</output>
		</layer>
		<layer id="95" name="conv4_3_norm_mbox_priorbox" precision="FP32" type="PriorBox">
			<data aspect_ratio="2.0" clip="0" flip="1" max_size="45.0" min_size="21.0" offset="0.5" step="8.0" variance="0.10000000149011612,0.10000000149011612,0.20000000298023224,0.20000000298023224"/>
			<input>
				<port id="0">
					<dim>1</dim>
					<dim>512</dim>
					<dim>38</dim>
					<dim>38</dim>
				</port>
				<port id="1">
					<dim>1</dim>
					<dim>3</dim>
					<dim>300</dim>
					<dim>300</dim>
				</port>
			</input>
			<output>
				<port id="2">
					<dim>1</dim>
					<dim>2</dim>
					<dim>23104</dim>
				</port>
			</output>
		</layer>
		<layer id="96" name="fc7_mbox_priorbox" precision="FP32" type="PriorBox">
			<data aspect_ratio="2.0,3.0" clip="0" flip="1" max_size="99.0" min_size="45.0" offset="0.5" step="16.0" variance="0.10000000149011612,0.10000000149011612,0.20000000298023224,0.20000000298023224"/>
			<input>
				<port id="0">
					<dim>1</dim>
					<dim>1024</dim>
					<dim>19</dim>
					<dim>19</dim>
				</port>
				<port id="1">
					<dim>1</dim>
					<dim>3</dim>
					<dim>300</dim>
					<dim>300</dim>
				</port>
			</input>
			<output>
				<port id="2">
					<dim>1</dim>
					<dim>2</dim>
					<dim>8664</dim>
				</port>
			</output>
		</layer>
		<layer id="97" name="conv6_2_mbox_priorbox" precision="FP32" type="PriorBox">
			<data aspect_ratio="2.0,3.0" clip="0" flip="1" max_size="153.0" min_size="99.0" offset="0.5" step="32.0" variance="0.10000000149011612,0.10000000149011612,0.20000000298023224,0.20000000298023224"/>
			<input>
				<port id="0">
					<dim>1</dim>
					<dim>512</dim>
					<dim>10</dim>
					<dim>10</dim>
				</port>
				<port id="1">
					<dim>1</dim>
					<dim>3</dim>
					<dim>300</dim>
					<dim>300</dim>
				</port>
			</input>
			<output>
				<port id="2">
					<dim>1</dim>
					<dim>2</dim>
					<dim>2400</dim>
				</port>
			</output>
		</layer>
		<layer id="98" name="conv7_2_mbox_priorbox" precision="FP32" type="PriorBox">
			<data aspect_ratio="2.0,3.0" clip="0" flip="1" max_size="207.0" min_size="153.0" offset="0.5" step="64.0" variance="0.10000000149011612,0.10000000149011612,0.20000000298023224,0.20000000298023224"/>
			<input>
				<port id="0">
					<dim>1</dim>
					<dim>256</dim>
					<dim>5</dim>
					<dim>5</dim>
				</port>
				<port id="1">
					<dim>1</dim>
					<dim>3</dim>
					<dim>300</dim>
					<dim>300</dim>
				</port>
			</input>
			<output>
				<port id="2">
					<dim>1</dim>
					<dim>2</dim>
					<dim>600</dim>
				</port>
			</output>
		</layer>
		<layer id="99" name="conv8_2_mbox_priorbox" precision="FP32" type="PriorBox">
			<data aspect_ratio="2.0" clip="0" flip="1" max_size="261.0" min_size="207.0" offset="0.5" step="100.0" variance="0.10000000149011612,0.10000000149011612,0.20000000298023224,0.20000000298023224"/>
			<input>
				<port id="0">
					<dim>1</dim>
					<dim>256</dim>
					<dim>3</dim>
					<dim>3</dim>
				</port>
				<port id="1">
					<dim>1</dim>
					<dim>3</dim>
					<dim>300</dim>
					<dim>300</dim>
				</port>
			</input>
			<output>
				<port id="2">
					<dim>1</dim>
					<dim>2</dim>
					<dim>144</dim>
				</port>
			</output>
		</layer>
		<layer id="100" name="conv9_2_mbox_priorbox" precision="FP32" type="PriorBox">
			<data aspect_ratio="2.0" clip="0" flip="1" max_size="315.0" min_size="261.0" offset="0.5" step="300.0" variance="0.10000000149011612,0.10000000149011612,0.20000000298023224,0.20000000298023224"/>
			<input>
				<port id="0">
					<dim>1</dim>
					<dim>256</dim>
					<dim>1</dim>
					<dim>1</dim>
				</port>
				<port id="1">
					<dim>1</dim>
					<dim>3</dim>
					<dim>300</dim>
					<dim>300</dim>
				</port>
			</input>
			<output>
				<port id="2">
					<dim>1</dim>
					<dim>2</dim>
					<dim>16</dim>
				</port>
			</output>
		</layer>
		<layer id="101" name="mbox_priorbox" precision="FP32" type="Concat">
			<data axis="2"/>
			<input>
				<port id="0">
					<dim>1</dim>
					<dim>2</dim>
					<dim>23104</dim>
				</port>
				<port id="1">
					<dim>1</dim>
					<dim>2</dim>
					<dim>8664</dim>
				</port>
				<port id="2">
					<dim>1</dim>
					<dim>2</dim>
					<dim>2400</dim>
				</port>
				<port id="3">
					<dim>1</dim>
					<dim>2</dim>
					<dim>600</dim>
				</port>
				<port id="4">
					<dim>1</dim>
					<dim>2</dim>
					<dim>144</dim>
				</port>
				<port id="5">
					<dim>1</dim>
					<dim>2</dim>
					<dim>16</dim>
				</port>
			</input>
			<output>
				<port id="6">
					<dim>1</dim>
					<dim>2</dim>
					<dim>34928</dim>
				</port>
			</output>
		</layer>
		<layer id="102" name="detection_out" precision="FP32" type="DetectionOutput">
			<data background_label_id="0" code_type="caffe.PriorBoxParameter.CENTER_SIZE" eta="1.0" input_height="1" input_width="1" keep_top_k="200" nms_threshold="0.44999998807907104" normalized="1" num_classes="21" share_location="1" top_k="400" variance_encoded_in_target="0" visualize="False"/>
			<input>
				<port id="0">
					<dim>1</dim>
					<dim>34928</dim>
				</port>
				<port id="1">
					<dim>1</dim>
					<dim>183372</dim>
				</port>
				<port id="2">
					<dim>1</dim>
					<dim>2</dim>
					<dim>34928</dim>
				</port>
			</input>
			<output>
				<port id="3">
					<dim>1</dim>
					<dim>1</dim>
					<dim>200</dim>
					<dim>7</dim>
				</port>
			</output>
		</layer>
	</layers>
	<edges>
		<edge from-layer="0" from-port="0" to-layer="1" to-port="0"/>
		<edge from-layer="1" from-port="3" to-layer="2" to-port="0"/>
		<edge from-layer="2" from-port="1" to-layer="3" to-port="0"/>
		<edge from-layer="3" from-port="3" to-layer="4" to-port="0"/>
		<edge from-layer="4" from-port="1" to-layer="5" to-port="0"/>
		<edge from-layer="5" from-port="1" to-layer="6" to-port="0"/>
		<edge from-layer="6" from-port="3" to-layer="7" to-port="0"/>
		<edge from-layer="7" from-port="1" to-layer="8" to-port="0"/>
		<edge from-layer="8" from-port="3" to-layer="9" to-port="0"/>
		<edge from-layer="9" from-port="1" to-layer="10" to-port="0"/>
		<edge from-layer="10" from-port="1" to-layer="11" to-port="0"/>
		<edge from-layer="11" from-port="3" to-layer="12" to-port="0"/>
		<edge from-layer="12" from-port="1" to-layer="13" to-port="0"/>
		<edge from-layer="13" from-port="3" to-layer="14" to-port="0"/>
		<edge from-layer="14" from-port="1" to-layer="15" to-port="0"/>
		<edge from-layer="15" from-port="3" to-layer="16" to-port="0"/>
		<edge from-layer="16" from-port="1" to-layer="17" to-port="0"/>
		<edge from-layer="17" from-port="1" to-layer="18" to-port="0"/>
		<edge from-layer="18" from-port="3" to-layer="19" to-port="0"/>
		<edge from-layer="19" from-port="1" to-layer="20" to-port="0"/>
		<edge from-layer="20" from-port="3" to-layer="21" to-port="0"/>
		<edge from-layer="21" from-port="1" to-layer="22" to-port="0"/>
		<edge from-layer="22" from-port="3" to-layer="23" to-port="0"/>
		<edge from-layer="23" from-port="1" to-layer="24" to-port="0"/>
		<edge from-layer="24" from-port="2" to-layer="25" to-port="0"/>
		<edge from-layer="25" from-port="3" to-layer="26" to-port="0"/>
		<edge from-layer="26" from-port="1" to-layer="27" to-port="0"/>
		<edge from-layer="23" from-port="1" to-layer="28" to-port="0"/>
		<edge from-layer="28" from-port="1" to-layer="29" to-port="0"/>
		<edge from-layer="29" from-port="3" to-layer="30" to-port="0"/>
		<edge from-layer="30" from-port="1" to-layer="31" to-port="0"/>
		<edge from-layer="31" from-port="3" to-layer="32" to-port="0"/>
		<edge from-layer="32" from-port="1" to-layer="33" to-port="0"/>
		<edge from-layer="33" from-port="3" to-layer="34" to-port="0"/>
		<edge from-layer="34" from-port="1" to-layer="35" to-port="0"/>
		<edge from-layer="35" from-port="1" to-layer="36" to-port="0"/>
		<edge from-layer="36" from-port="3" to-layer="37" to-port="0"/>
		<edge from-layer="37" from-port="1" to-layer="38" to-port="0"/>
		<edge from-layer="38" from-port="3" to-layer="39" to-port="0"/>
		<edge from-layer="39" from-port="1" to-layer="40" to-port="0"/>
		<edge from-layer="40" from-port="3" to-layer="41" to-port="0"/>
		<edge from-layer="41" from-port="1" to-layer="42" to-port="0"/>
		<edge from-layer="39" from-port="1" to-layer="43" to-port="0"/>
		<edge from-layer="43" from-port="3" to-layer="44" to-port="0"/>
		<edge from-layer="44" from-port="1" to-layer="45" to-port="0"/>
		<edge from-layer="45" from-port="3" to-layer="46" to-port="0"/>
		<edge from-layer="46" from-port="1" to-layer="47" to-port="0"/>
		<edge from-layer="47" from-port="3" to-layer="48" to-port="0"/>
		<edge from-layer="48" from-port="1" to-layer="49" to-port="0"/>
		<edge from-layer="46" from-port="1" to-layer="50" to-port="0"/>
		<edge from-layer="50" from-port="3" to-layer="51" to-port="0"/>
		<edge from-layer="51" from-port="1" to-layer="52" to-port="0"/>
		<edge from-layer="52" from-port="3" to-layer="53" to-port="0"/>
		<edge from-layer="53" from-port="1" to-layer="54" to-port="0"/>
		<edge from-layer="54" from-port="3" to-layer="55" to-port="0"/>
		<edge from-layer="55" from-port="1" to-layer="56" to-port="0"/>
		<edge from-layer="53" from-port="1" to-layer="57" to-port="0"/>
		<edge from-layer="57" from-port="3" to-layer="58" to-port="0"/>
		<edge from-layer="58" from-port="1" to-layer="59" to-port="0"/>
		<edge from-layer="59" from-port="3" to-layer="60" to-port="0"/>
		<edge from-layer="60" from-port="1" to-layer="61" to-port="0"/>
		<edge from-layer="61" from-port="3" to-layer="62" to-port="0"/>
		<edge from-layer="62" from-port="1" to-layer="63" to-port="0"/>
		<edge from-layer="60" from-port="1" to-layer="64" to-port="0"/>
		<edge from-layer="64" from-port="3" to-layer="65" to-port="0"/>
		<edge from-layer="65" from-port="1" to-layer="66" to-port="0"/>
		<edge from-layer="66" from-port="3" to-layer="67" to-port="0"/>
		<edge from-layer="67" from-port="1" to-layer="68" to-port="0"/>
		<edge from-layer="68" from-port="3" to-layer="69" to-port="0"/>
		<edge from-layer="69" from-port="1" to-layer="70" to-port="0"/>
		<edge from-layer="27" from-port="1" to-layer="71" to-port="0"/>
		<edge from-layer="42" from-port="1" to-layer="71" to-port="1"/>
		<edge from-layer="49" from-port="1" to-layer="71" to-port="2"/>
		<edge from-layer="56" from-port="1" to-layer="71" to-port="3"/>
		<edge from-layer="63" from-port="1" to-layer="71" to-port="4"/>
		<edge from-layer="70" from-port="1" to-layer="71" to-port="5"/>
		<edge from-layer="24" from-port="2" to-layer="72" to-port="0"/>
		<edge from-layer="72" from-port="3" to-layer="73" to-port="0"/>
		<edge from-layer="73" from-port="1" to-layer="74" to-port="0"/>
		<edge from-layer="39" from-port="1" to-layer="75" to-port="0"/>
		<edge from-layer="75" from-port="3" to-layer="76" to-port="0"/>
		<edge from-layer="76" from-port="1" to-layer="77" to-port="0"/>
		<edge from-layer="46" from-port="1" to-layer="78" to-port="0"/>
		<edge from-layer="78" from-port="3" to-layer="79" to-port="0"/>
		<edge from-layer="79" from-port="1" to-layer="80" to-port="0"/>
		<edge from-layer="53" from-port="1" to-layer="81" to-port="0"/>
		<edge from-layer="81" from-port="3" to-layer="82" to-port="0"/>
		<edge from-layer="82" from-port="1" to-layer="83" to-port="0"/>
		<edge from-layer="60" from-port="1" to-layer="84" to-port="0"/>
		<edge from-layer="84" from-port="3" to-layer="85" to-port="0"/>
		<edge from-layer="85" from-port="1" to-layer="86" to-port="0"/>
		<edge from-layer="67" from-port="1" to-layer="87" to-port="0"/>
		<edge from-layer="87" from-port="3" to-layer="88" to-port="0"/>
		<edge from-layer="88" from-port="1" to-layer="89" to-port="0"/>
		<edge from-layer="74" from-port="1" to-layer="90" to-port="0"/>
		<edge from-layer="77" from-port="1" to-layer="90" to-port="1"/>
		<edge from-layer="80" from-port="1" to-layer="90" to-port="2"/>
		<edge from-layer="83" from-port="1" to-layer="90" to-port="3"/>
		<edge from-layer="86" from-port="1" to-layer="90" to-port="4"/>
		<edge from-layer="89" from-port="1" to-layer="90" to-port="5"/>
		<edge from-layer="90" from-port="6" to-layer="92" to-port="0"/>
		<edge from-layer="91" from-port="1" to-layer="92" to-port="1"/>
		<edge from-layer="92" from-port="2" to-layer="93" to-port="0"/>
		<edge from-layer="93" from-port="1" to-layer="94" to-port="0"/>
		<edge from-layer="24" from-port="2" to-layer="95" to-port="0"/>
		<edge from-layer="0" from-port="0" to-layer="95" to-port="1"/>
		<edge from-layer="39" from-port="1" to-layer="96" to-port="0"/>
		<edge from-layer="0" from-port="0" to-layer="96" to-port="1"/>
		<edge from-layer="46" from-port="1" to-layer="97" to-port="0"/>
		<edge from-layer="0" from-port="0" to-layer="97" to-port="1"/>
		<edge from-layer="53" from-port="1" to-layer="98" to-port="0"/>
		<edge from-layer="0" from-port="0" to-layer="98" to-port="1"/>
		<edge from-layer="60" from-port="1" to-layer="99" to-port="0"/>
		<edge from-layer="0" from-port="0" to-layer="99" to-port="1"/>
		<edge from-layer="67" from-port="1" to-layer="100" to-port="0"/>
		<edge from-layer="0" from-port="0" to-layer="100" to-port="1"/>
		<edge from-layer="95" from-port="2" to-layer="101" to-port="0"/>
		<edge from-layer="96" from-port="2" to-layer="101" to-port="1"/>
		<edge from-layer="97" from-port="2" to-layer="101" to-port="2"/>
		<edge from-layer="98" from-port="2" to-layer="101" to-port="3"/>
		<edge from-layer="99" from-port="2" to-layer="101" to-port="4"/>
		<edge from-layer="100" from-port="2" to-layer="101" to-port="5"/>
		<edge from-layer="71" from-port="6" to-layer="102" to-port="0"/>
		<edge from-layer="94" from-port="1" to-layer="102" to-port="1"/>
		<edge from-layer="101" from-port="6" to-layer="102" to-port="2"/>
	</edges>
	<meta_data>
		<MO_version value="2019.1.0-341-gc9b66a2"/>
		<cli_parameters>
			<data_type value="float"/>
			<disable_fusing value="False"/>
			<disable_gfusing value="False"/>
			<disable_omitting_optional value="False"/>
			<disable_resnet_optimization value="False"/>
			<enable_concat_optimization value="False"/>
			<enable_flattening_nested_params value="False"/>
			<extensions value="DIR"/>
			<framework value="caffe"/>
			<generate_deprecated_IR_V2 value="False"/>
			<input_model value="DIR/ssd300.caffemodel"/>
			<input_proto value="DIR/ssd300.prototxt"/>
			<k value="DIR/CustomLayersMapping.xml"/>
			<keep_shape_ops value="False"/>
			<log_level value="ERROR"/>
			<mean_scale_values value="{}"/>
			<mean_values value="()"/>
			<move_to_preprocess value="False"/>
			<output_dir value="DIR"/>
			<reverse_input_channels value="False"/>
			<scale_values value="()"/>
			<silent value="False"/>
			<version value="False"/>
			<unset unset_cli_parameters="batch, finegrain_fusing, freeze_placeholder_with_value, input, input_shape, mean_file, mean_file_offsets, model_name, output, placeholder_shapes, scale"/>
		</cli_parameters>
	</meta_data>
</net>
